…
    "text": "Some available models\n\nIf we want to use the ResNet model structure for image classification and the image size is 200x200, we can use the following code to get the model structure.\nNote that this model is defined for ImageNet, which has 1000 classes. If you want to use it for a different number of classes, you need to change the last layer.\n\n\nimport torchvision.models as models\nfrom torchsummary import summary\n\nresnet = models.resnet18(weights=None) # No weights - random initialization\nsummary(resnet, (3, 200, 200))\n\n----------------------------------------------------------------\n        Layer (type)               Output Shape         Param #\n================================================================\n            Conv2d-1         [-1, 64, 100, 100]           9,408\n       BatchNorm2d-2         [-1, 64, 100, 100]             128\n              ReLU-3         [-1, 64, 100, 100]               0\n         MaxPool2d-4           [-1, 64, 50, 50]               0\n            Conv2d-5           [-1, 64, 50, 50]          36,864\n       BatchNorm2d-6           [-1, 64, 50, 50]             128\n              ReLU-7           [-1, 64, 50, 50]               0\n            Conv2d-8           [-1, 64, 50, 50]          36,864\n       BatchNorm2d-9           [-1, 64, 50, 50]             128\n             ReLU-10           [-1, 64, 50, 50]               0\n       BasicBlock-11           [-1, 64, 50, 50]               0\n           Conv2d-12           [-1, 64, 50, 50]          36,864\n      BatchNorm2d-13           [-1, 64, 50, 50]             128\n             ReLU-14           [-1, 64, 50, 50]               0\n           Conv2d-15           [-1, 64, 50, 50]          36,864\n      BatchNorm2d-16           [-1, 64, 50, 50]             128\n             ReLU-17           [-1, 64, 50, 50]               0\n       BasicBlock-18           [-1, 64, 50, 50]               0\n           Conv2d-19          [-1, 128, 25, 25]          73,728\n      BatchNorm2d-20          [-1, 128, 25, 25]             256\n             ReLU-21          [-1, 128, 25, 25]               0\n           Conv2d-22          [-1, 128, 25, 25]         147,456\n      BatchNorm2d-23          [-1, 128, 25, 25]             256\n           Conv2d-24          [-1, 128, 25, 25]           8,192\n      BatchNorm2d-25          [-1, 128, 25, 25]             256\n             ReLU-26          [-1, 128, 25, 25]               0\n       BasicBlock-27          [-1, 128, 25, 25]               0\n           Conv2d-28          [-1, 128, 25, 25]         147,456\n      BatchNorm2d-29          [-1, 128, 25, 25]             256\n             ReLU-30          [-1, 128, 25, 25]               0\n           Conv2d-31          [-1, 128, 25, 25]         147,456\n      BatchNorm2d-32          [-1, 128, 25, 25]             256\n             ReLU-33          [-1, 128, 25, 25]               0\n       BasicBlock-34          [-1, 128, 25, 25]               0\n           Conv2d-35          [-1, 256, 13, 13]         294,912\n      BatchNorm2d-36          [-1, 256, 13, 13]             512\n             ReLU-37          [-1, 256, 13, 13]               0\n           Conv2d-38          [-1, 256, 13, 13]         589,824\n      BatchNorm2d-39          [-1, 256, 13, 13]             512\n           Conv2d-40          [-1, 256, 13, 13]          32,768\n      BatchNorm2d-41          [-1, 256, 13, 13]             512\n             ReLU-42          [-1, 256, 13, 13]               0\n       BasicBlock-43          [-1, 256, 13, 13]               0\n           Conv2d-44          [-1, 256, 13, 13]         589,824\n      BatchNorm2d-45          [-1, 256, 13, 13]             512\n             ReLU-46          [-1, 256, 13, 13]               0\n           Conv2d-47          [-1, 256, 13, 13]         589,824\n      BatchNorm2d-48          [-1, 256, 13, 13]             512\n             ReLU-49          [-1, 256, 13, 13]               0\n       BasicBlock-50          [-1, 256, 13, 13]               0\n           Conv2d-51            [-1, 512, 7, 7]       1,179,648\n      BatchNorm2d-52            [-1, 512, 7, 7]           1,024\n             ReLU-53            [-1, 512, 7, 7]               0\n           Conv2d-54            [-1, 512, 7, 7]       2,359,296\n      BatchNorm2d-55            [-1, 512, 7, 7]           1,024\n           Conv2d-56            [-1, 512, 7, 7]         131,072\n      BatchNorm2d-57            [-1, 512, 7, 7]           1,024\n             ReLU-58            [-1, 512, 7, 7]               0\n       BasicBlock-59            [-1, 512, 7, 7]               0\n           Conv2d-60            [-1, 512, 7, 7]       2,359,296\n      BatchNorm2d-61            [-1, 512, 7, 7]           1,024\n             ReLU-62            [-1, 512, 7, 7]               0\n           Conv2d-63            [-1, 512, 7, 7]       2,359,296\n      BatchNorm2d-64            [-1, 512, 7, 7]           1,024\n             ReLU-65            [-1, 512, 7, 7]               0\n       BasicBlock-66            [-1, 512, 7, 7]               0\nAdaptiveAvgPool2d-67            [-1, 512, 1, 1]               0\n           Linear-68                 [-1, 1000]         513,000\n================================================================\nTotal params: 11,689,512\nTrainable params: 11,689,512\nNon-trainable params: 0\n----------------------------------------------------------------\nInput size (MB): 0.46\nForward/backward pass size (MB): 51.08\nParams size (MB): 44.59\nEstimated Total Size (MB): 96.13\n----------------------------------------------------------------"
…
